model.bin (torch, 271604 bytes, 6 tensors)

fc1.weight f4 [256, 2]
0.60077125 1.4906185 -0.16567264 -0.016579153 0.101902544 -0.26618323 -0.25573358 -0.4324099
0.13562626 0.18340194 0.0071846843 -0.04537034 -0.18738794 -0.082543254 -0.43666714 0.080378056
-0.24828994 0.6203992 -0.004674673 -0.20341128 -0.8304843 0.09908903 -0.22765216 0.0006611943
0.21337497 -0.03198743 -0.43529198 -0.7201778 -1.1647534 0.2681787 -0.2803278 -0.2599846
-0.3195745 0.43289644 0.117991626 -0.16215134 0.5603582 -0.2051801 0.1628515 0.5450746
-0.93156356 1.2364334 -0.27833164 -0.25968492 -0.4340747 -0.8268479 -0.85314494 0.23311187
0.09974537 0.025270943 -0.8465896 -0.58472466 0.6204384 0.1983183 -0.08700383 0.57638127
-0.3992081 -0.07248699 0.28465897 -0.4093269 0.826637 0.27421522 -0.14935416 -0.25557232
0.20076504 -0.70271367 -1.1388164 1.021175 0.16323853 -0.5381401 -0.11757915 -3.7000024
0.29976404 -2.686737 -0.07408001 0.62605035 0.30059183 0.02056145 -0.27799863 -0.052972194
0.6130466 -0.32194418 -0.6539377 0.5526969 0.28426313 -0.35049698 0.36589676 -0.45874292
0.48391372 -0.551841 -0.21190797 -0.12947506 -1.2107456 -0.670556 0.119795844 -0.28081256
0.18603747 -0.6633122 -0.52797997 0.41696832 0.44147724 -0.6579799 0.0954471 -0.3913481
-0.8286862 -0.4941241 0.11262266 -0.022867985 -0.7267761 0.478807 -0.51019216 -0.7034944
-0.15496737 -0.27896273 -1.133052 -0.43104327 -0.20401871 0.08030063 -0.6298288 -0.9128436
-1.1468589 0.41381007 0.30577213 -0.95041126 -0.18922693 -0.34187686 -1.2537454 -0.5797963
-0.8250834 -0.35280007 -0.7850098 0.38597757 -0.5242447 -0.025529278 -0.038746595 0.012224495
-0.26245365 -0.4055351 0.16880369 0.57207197 0.5674359 2.336973 -0.22870615 0.5686396
-0.54394585 -0.6160758 -0.22229257 -0.00086574396 0.061053693 -0.34341487 0.25586438 0.12249756
-0.8162395 -0.73823935 0.7089074 0.8589836 -0.10551107 0.34729114 0.3685339 -0.052510813
-0.16449028 0.46662223 0.5118411 -0.40576455 -0.048234284 0.55372673 -0.827103 -0.7147881
0.42966333 -0.6093696 -0.8300286 -1.485359 0.6324079 -0.35529318 0.13622142 -0.9944545
0.30009562 -0.96854377 -0.58592165 0.07587154 -0.07603872 -0.6665898 -0.091522634 -0.16427356
-0.67341596 0.68760544 -0.45077902 -0.9112362 0.47260815 -0.13411885 0.69758755 0.54393196
0.46132812 -0.65924317 -0.7366483 0.31734273 -0.47269285 -0.56925815 -0.6795196 0.014956184
0.45049065 -0.21924976 0.5374066 0.6349377 -0.13050765 0.279074 0.2416926 -0.55391216
-0.654139 0.05080477 -0.74816644 -0.31905097 -0.18040526 0.7368625 -1.1539056 0.03501823
0.14189476 -0.5541531 0.020623982 0.13991094 -0.4210062 -0.03129369 0.8225868 -0.34435847
-0.5892866 -0.74452984 -0.42711133 0.007751135 0.29935282 0.66085416 -0.9639594 1.267633
-0.69462854 0.22600554 0.56100047 -0.57156557 -0.5153584 0.49710327 -0.20579292 0.25047758
0.4513678 0.3563096 -0.17673087 -0.13433123 -1.0332614 -0.72841316 -0.22357208 -0.25923136
0.35417265 0.0081548095 0.29579398 -0.6275522 0.3858592 0.026628137 -0.27576202 -0.8555879
00000000: 25cc 193f 96cc be3f 17a6 29be 01d1 87bc
00000010: 48b2 d03d 2b49 88be 83ef 82be d564 ddbe
00000020: 9ce1 0a3e b8cd 3b3e 806d eb3b 40d6 39bd
00000030: a0e2 3fbe 700c a9bd d692 dfbe 409d a43d
00000040: b83f 7ebe 7bd2 1e3f 002e 99bb 0c4b 50be
00000050: 9e9a 54bf 30ef ca3d a61d 69be 0054 2d3a
00000060: f87e 5a3e 4005 03bd 97de debe 935d 38bf
00000070: a416 95bf b84e 893e 2087 8fbe b41c 85be
00000080: 459f a3be 9aa4 dd3e 98a5 f13d 000b 26be
00000090: a373 0f3f bb1a 52be 8bc2 263e 028a 0b3f
000000a0: f37a 6ebf 7343 9e3f 7c81 8ebe 6cf5 84be
000000b0: 0a3f debe 4eac 53bf b567 5abf e1b4 6e3e
000000c0: 4d47 cc3d 0205 cf3c 19ba 58bf 84b0 15bf
000000d0: 0dd5 1e3f f413 4b3e 102f b2bd b98d 133f
000000e0: 0165 ccbe 0f74 94bd d2be 913e 4c93 d1be
000000f0: 7c9e 533f f065 8c3e 4cf0 18be 60da 82be
00000100: 5a95 4d3e 0be5 33bf bcc4 91bf ddb5 823f
00000110: 0028 273e 8dc3 09bf 56cd f0bd d7cc 6cc0
00000120: ac7a 993e 80f3 2bc0 43b7 97bd d644 203f
00000130: 2ce7 993e 7c70 a83c d655 8ebe 5ff9 58bd
00000140: 9ff0 1c3f ded5 a4be 7668 27bf 8b7d 0d3f
00000150: f08a 913e 5774 b3be d256 bb3e 5ae0 eabe
00000160: 8ac3 f73e 7445 0dbf 67fe 58be 1c95 04be
00000170: b6f9 9abf 8fa9 2bbf 8657 f53d aac6 8fbe
00000180: 9b80 3e3e d4ce 29bf b229 07bf df7c d53e
00000190: 4e09 e23e 5f71 28bf c579 c33d c75e c8be
000001a0: c724 54bf d6fd fcbe b6a6 e63d a455 bbbc
000001b0: 000e 3abf 3126 f53e f49b 02bf 3618 34bf
000001c0: c4af 1ebe 34d4 8ebe d907 91bf b4b1 dcbe
000001d0: 48ea 50be a874 a43d 763c 21bf 1eb0 69bf
000001e0: 46cc 92bf eade d33e 2a8e 9c3e 274e 73bf
000001f0: b4c4 41be 7c0a afbe bb7a a0bf 886d 14bf
00000200: aa38 53bf 36a2 b4be 67f6 48bf da9e c53e
00000210: e734 06bf c722 d1bc c0b4 1ebd 4049 483c
00000220: 5360 86be 4ca2 cfbe e0da 2c3e 4f73 123f
00000230: 7b43 113f f790 1540 f231 6abe 5d92 113f
00000240: 0940 0bbf 25b7 1dbf aaa0 63be 18f3 62ba
00000250: 7013 7a3d 13d4 afbe a800 833e 00e0 fa3d
00000260: 12f5 50bf 41fd 3cbf f57a 353f 59e6 5b3f
00000270: 3016 d8bd 25d0 b13e 7ab0 bc3e 9415 57bd
00000280: 2470 28be 1ce9 ee3e 0508 033f 5fc0 cfbe
00000290: 5091 45bd 09c1 0d3f 06bd 53bf 5afc 36bf
000002a0: d5fc db3e a5ff 1bbf c17c 54bf 3e20 bebf
000002b0: 7ce5 213f fde8 b5be a17d 0b3e 9294 7ebf
000002c0: 22a6 993e 7cf2 77bf f6fe 15bf 8a62 9b3d
000002d0: 30ba 9bbd a1a5 2abf 3870 bbbd 5437 28be
000002e0: fd64 2cbf e906 303f 82cc e6be c746 69bf
000002f0: b2f9 f13e 7456 09be 1995 323f 203f 0b3f
00000300: 3333 ec3e 29c4 28bf fc94 3cbf bf7a a23e
00000310: cc04 f2be e7ba 11bf fff4 2dbf c80a 753c
00000320: b6a6 e63e 0283 60be 7b93 093f 478b 223f
00000330: cca3 05be cae2 8e3e 447e 773e 30cd 0dbf
00000340: a775 27bf aa18 503d d687 3fbf a65a a3be
00000350: 28bc 38be 05a3 3c3f 2eb3 93bf 476f 0f3d
00000360: dc4c 113e fadc 0dbf a0f3 a83c d044 0f3e
00000370: 208e d7be d02d 00bd 0c95 523f c14f b0be
00000380: 7ddb 16bf 8299 3ebf 56ae dabe 3cfd fd3b
00000390: c644 993e bd2d 293f 0bc6 76bf cc41 a23f
000003a0: 2dd3 31bf ff6d 673e ba9d 0f3f 1f52 12bf
000003b0: 87ee 03bf 5284 fe3e 61bb 52be 993e 803e
000003c0: ae19 e73e 366e b63e f0f8 34be 208e 09be
000003d0: e941 84bf 4979 3abf 14f0 64be f9b9 84be
000003e0: 1e56 b53e c09b 053c 4f72 973e 43a7 20bf
000003f0: 568f c53e 4023 da3c ae30 8dbe cf07 5bbf

fc1.bias f4 [256]
-0.0054057124 0.4663236 -0.18862689 0.78372884 -0.5834632 -0.43789008 -0.49294472 -0.6133414
-0.3784164 -0.05623138 0.45555893 -0.4496819 -0.6413545 0.7345596 0.068874925 -0.6469663
1.0102919 -0.23374414 0.23335697 0.5746048 0.06936388 0.18032627 -0.5211015 -0.47431758
0.30903897 1.0053047 -0.51668376 -0.41243684 0.8002189 -0.40517974 -0.10941762 -0.7021267
1.0084338 0.09956825 0.34205842 0.02002928 -0.105191305 0.52359426 0.24241848 0.73260283
-0.57481927 0.5706676 -0.69736636 -0.5975748 -0.6668042 0.37996662 -0.055713985 0.89284015
0.3362282 0.797384 -0.626082 0.800735 0.6264906 0.58815056 0.871282 0.709261
-0.36382273 -0.0948587 -0.3551345 0.84392524 0.086519904 -0.059451405 0.9194049 -0.019208973
0.45302764 0.78758305 0.9751433 -0.642762 -0.36006945 -0.36361754 -0.02672802 -0.44608393
0.72552186 0.87125313 -0.5944107 -0.2623257 -0.3912567 -0.07142552 0.4923408 1.0192647
1.0011096 -0.31293276 -0.60486984 -0.14827853 0.83371764 -0.22253993 -0.08931815 0.16353157
-0.059592456 0.49758407 -0.36523524 -0.12756503 0.38134283 0.60398436 -0.43608466 -0.070714235
0.71940327 0.4746963 1.0733507 0.5473551 -0.54151267 -0.33412772 -0.6338184 -0.3687637
0.49453396 0.4087915 0.5405427 0.033611413 -0.070635036 -0.5737678 -0.5636213 -0.09938415
0.5803091 0.50455344 -0.58496547 0.08099795 0.4035496 0.19252135 1.1363182 0.90570474
-0.6109624 0.47695985 -0.021575985 0.5707168 -0.25870967 0.9330597 -0.31308332 0.5047098
-0.31837517 -0.06788229 -0.22808206 -0.16174671 0.38646644 1.0512373 0.5922682 0.76574475
-0.07669441 0.980081 0.03947323 0.72404456 -0.55424786 0.24798276 -0.7065062 -0.2647129
-0.33731565 -0.097143434 0.44200554 -0.03524921 1.0815878 -0.32513022 0.085591726 0.5977971
0.00918323 -0.52924925 0.36288965 -0.28141516 0.7022407 -0.511646 0.4103396 -0.12550953
-0.020901253 0.9718668 1.0032719 0.42439947 0.6570756 0.048265122 0.8939594 0.8548977
0.9175604 0.45473096 0.5743515 0.9505235 0.8205519 1.129914 0.39195725 0.44019192
0.058725927 0.040159535 0.7047341 -0.69815445 -0.0235529 0.79196787 0.9592888 0.09777159
0.6451395 0.2750045 0.58898145 0.5847967 -0.38625893 0.49127197 0.9604807 0.36116782
-0.6758104 -0.3553253 0.53831476 -0.59196496 0.73318934 0.9989859 -0.0747901 -0.49731857
0.9903423 0.3330921 -0.3610798 0.521766 -0.62001705 0.94010466 0.47606933 -0.5749532
-0.3863658 1.0741551 0.70362 -0.027308736 -0.29876298 -0.24141875 -0.5654664 -0.6212621
-0.26063654 -0.3622895 0.6679886 1.0807765 0.7421242 0.01447684 0.06239641 -0.5969541
-0.5943613 0.46822768 -0.6445514 -0.34740576 0.7412155 0.46314704 0.89698935 0.47758004
0.07346155 0.45590565 -0.27060544 -0.31673694 0.5835206 -0.5366298 0.27466282 -0.6105948
0.5772996 0.8425839 -0.029098647 0.7099785 0.96310776 0.50310034 0.40095484 -0.49406162
0.4579803 0.9698202 0.79104877 -0.44027516 -0.6991628 0.8531404 -0.073229596 0.8040211
00000000: 6722 b1bb f8c1 ee3e 6827 41be 74a2 483f
00000010: d85d 15bf 2133 e0be 4063 fcbe f103 1dbf
00000020: cbbf c1be e052 66bd 053f e93e b53c e6be
00000030: cf2f 24bf 190c 3c3f 4c0e 8d3d 959f 25bf
00000040: 3f51 813f a05a 6fbe 21f5 6e3e 4d19 133f
00000050: a60e 8e3d 73a7 383e e866 05bf c1d9 f2be
00000060: 5b3a 9e3e d3ad 803f 6345 04bf ec2a d3be
00000070: 25db 4c3f b873 cfbe 5816 e0bd 93be 33bf
00000080: 5c14 813f 70ea cb3d 4822 af3e 7214 a43c
00000090: 8a6e d7bd 460a 063f 8d3c 783e dc8b 3b3f
000000a0: 5b27 13bf 4617 123f 9a86 32bf a9fa 18bf
000000b0: aeb3 2abf fc8a c23e 5934 64bd 2c91 643f
000000c0: 1a26 ac3e 5c21 4c3f e946 20bf f8fc 4c3f
000000d0: b061 203f 0991 163f 560c 5f3f 2192 353f
000000e0: f946 babe 4745 c2bd 30d4 b5be 7c0b 583f
000000f0: 5931 b13d 5183 73bd 1f5e 6b3f 235c 9dbc
00000100: 3df3 e73e 0b9f 493f fea2 793f 0d8c 24bf
00000110: 065b b8be 142c babe b8f4 dabc 1d65 e4be
00000120: cdbb 393f 720a 5f3f 4d2b 18bf 8e4f 86be
00000130: cc52 c8be 8b47 92bd 1814 fc3e 4477 823f
00000140: 5c24 803f b938 a0be c0d8 1abf 54d6 17be
00000150: 856e 553f 82e1 63be 6fec b6bd d274 273e
00000160: 3817 74bd 57c3 fe3e 1d00 bbbe 68a0 02be
00000170: 5e3f c33e b89e 1a3f 7d46 dfbe a0d2 90bd
00000180: d02a 383f 650b f33e 8e63 893f 771f 0c3f
00000190: 93a0 0abf ca12 abbe ec41 22bf 98ce bcbe
000001a0: 8e33 fd3e 1f4d d13e 0261 0a3f 1fac 093d
000001b0: 1aa9 90bd 72e2 12bf 7c49 10bf eb89 cbbd
000001c0: 238f 143f 6a2a 013f 4cc0 15bf 41e2 a53d
000001d0: 0e9e ce3e 5124 453e e072 913f 44dc 673f
000001e0: 0868 1cbf 1534 f43e 1fc0 b0bc 7f1a 123f
000001f0: 9875 84be 00dd 6e3f 754c a0be a934 013f
00000200: 1202 a3be df05 8bbd 588e 69be eea0 25be
00000210: eede c53e f28e 863f e49e 173f d907 443f
00000220: f511 9dbd 97e6 7a3f aeae 213d fc5a 393f
00000230: 30e3 0dbf 31ef 7d3e 97dd 34bf 7388 87be
00000240: a3b4 acbe 23f3 c6bd 8d4e e23e 7a61 10bd
00000250: 7871 8a3f 7877 a6be b74a af3d 3b09 193f
00000260: 4275 163c e17c 07bf accc b93e a615 90be
00000270: 0cc6 333f 3bfb 02bf 0818 d23e 9285 00be
00000280: 1b39 abbc 43cc 783f 376b 803f e34a d93e
00000290: 1b36 283f a6b1 453d 86da 643f 93da 5a3f
000002a0: 3de5 6a3f 7fd2 e83e b308 133f 8255 733f
000002b0: b00f 523f 06a1 903f 9fae c83e d660 e13e
000002c0: 998a 703d 537e 243d 7469 343f 40ba 32bf
000002d0: 03f2 c0bc 68be 4a3f f393 753f 793c c83d
000002e0: dd27 253f 64cd 8c3e 7dc7 163f 3db5 153f
000002f0: bbc3 c5be 0088 fb3e 10e2 753f fdea b83e
00000300: e901 2dbf 33ed b5be ffce 093f 048b 17bf
00000310: 4cb2 3b3f 8abd 7f3f 8d2b 99bd 8aa0 febe
00000320: 1387 7d3f 0c8b aa3e 74df b8be 7592 053f
00000330: 70b9 1ebf b3aa 703f 5cbf f33e 2230 13bf
00000340: bdd1 c5be ea7d 893f 7120 343f 92b6 dfbc
00000350: 76f7 98be 7a36 77be 68c2 10bf 080b 1fbf
00000360: 2772 85be 027e b9be 4d01 2b3f e256 8a3f
00000370: dafb 3d3f 4530 6d3c 6193 7f3d fcd1 18bf
00000380: 1028 18bf 8abb ef3e 5201 25bf 2bdf b1be
00000390: 4dc0 3d3f 9c21 ed3e 18a1 653f 5f85 f43e
000003a0: 0273 963d 776c e93e cc8c 8abe 582b a2be
000003b0: 9b61 153f 9260 09bf 9ba0 8c3e f14f 1cbf
000003c0: e8c9 133f 94b3 573f 4960 eebc 27c1 353f
000003d0: 3b8e 763f 2fcb 003f f449 cd3e a5f5 fcbe
000003e0: 657c ea3e 2346 783f 2c82 4a3f bf6b e1be
000003f0: 55fc 32bf 6967 5a3f 66f9 95bd 54d4 4d3f

fc2.weight f4 [256, 256]
-0.014785288 0.020167908 -0.061436646 0.025907053 -0.0018244311 -0.05262948 -0.048672527 -0.016151719
0.0027361661 -0.0018652901 0.096475236 -0.05677119 -0.009613872 0.0047889827 -0.17379688 0.040957928
-0.024963986 0.033452682 0.2502515 0.026382323 -0.3171244 0.09028933 0.10684511 -0.19401416
0.11272127 0.0241059 -0.017689005 0.01574707 -0.002178061 0.060135104 -0.13419996 -0.027260281
-0.050981868 -0.08968546 0.16513698 -0.08127726 -0.0043116375 0.01673566 0.2245595 -0.05157543
-0.0111937225 0.0139221195 -0.0154310465 -0.05557885 0.0209172 0.014312641 -0.09880662 -0.016631538
0.16059345 0.049024995 -0.0049327537 0.0449628 0.054804586 0.040169913 0.018474877 0.049155302
-0.056958355 -0.13295032 0.0257693 -0.017815335 -0.19150788 -0.1769382 0.05154972 -0.090310715
0.12693055 0.04013389 -0.0072933375 0.028669663 0.05803611 -0.020429656 -0.056006145 0.029266
0.036366206 -0.0048490074 0.061824158 0.01553528 -0.25916997 -0.050661303 0.046219565 0.036616568
0.014889646 0.054296963 0.060340084 -0.13849811 0.015275972 -0.20605125 -0.21437237 0.17236996
-0.07056413 0.101841435 0.061303824 0.00474035 0.12565947 0.05083636 -0.014910385 -0.12360372
0.09992375 0.051917452 0.024172302 0.08397642 0.0229337 -0.0430872 0.051816367 0.012470707
0.04867891 0.21757004 0.0075573986 -0.13751681 0.006075665 0.045654148 -0.043864883 -0.20602155
0.041364525 0.048481014 -0.059251256 -0.12929265 0.15595831 0.21640936 -0.0022216486 0.016599897
0.0031878874 -0.04005438 -0.12655765 -0.052799676 -0.033344455 0.02185313 0.014242701 0.04246605
-0.038180664 -0.11945293 -0.03709492 -0.02714867 0.21349734 -0.014911036 0.027680863 0.02935646
-0.22484326 0.0011167498 -0.18639815 0.060203187 0.05388146 0.21544652 0.0005792901 -0.13942964
0.017549738 -0.20111665 -0.019643445 -0.008247386 0.0049496773 0.023498908 -0.05283754 -0.03440216
0.0018319326 0.0122458935 0.23604594 -0.004915282 0.045801558 -0.06142441 0.00010726561 -0.23871005
-0.019047149 -0.053108115 -0.006115763 0.18088062 -0.039936397 -0.010657295 0.04671389 -0.052186295
0.019576695 0.22415611 -0.013400051 -0.001167966 0.038143437 -0.019588057 0.06859299 0.073698185
-0.23632713 -0.106934205 -0.011653683 -0.02130299 0.013640963 0.035444617 -0.046782594 -0.053395182
-0.0020130994 0.0004661896 0.011889063 0.0050751227 0.018699802 0.07738686 0.02724134 0.10439023
0.011394255 0.0282085 0.01590943 0.030174106 -0.015369629 0.027664045 0.022293642 -0.15180391
0.039341122 0.16999625 0.00396055 0.074121006 -0.012679413 -0.015246727 0.040549256 -0.05540646
-0.06101606 -0.033808254 0.02843732 -0.0628984 -0.018185146 -0.05919998 0.01702623 0.0015678927
-0.062181495 0.04576762 0.065527804 0.054317463 0.052916106 -0.16005512 0.20566039 -0.05739665
0.05214739 0.11094548 0.025812112 -0.018089242 0.04197562 -0.04373975 -0.052612145 -0.007058158
-0.08138395 0.114043675 -0.12679867 -0.062324226 -0.023383152 -0.039656945 0.121779025 0.015890613
0.09611968 0.012600759 -0.18234235 0.043284863 -0.001936401 0.011156278 0.15098996 -0.012737356
-0.020064587 -0.01943951 0.031567305 0.022574708 -0.05985578 -0.031848438 -0.06759448 0.02746449
00000000: fe3d 72bc 2b37 a53c fea4 7bbd 073b d43c
00000010: c021 efba 0292 57bd d85c 47bd 9c50 84bc
00000020: 4051 333b c07c f4ba cf94 c53d e888 68bd
00000030: 8083 1dbc e6ec 9c3b cff7 31be 80c3 273d
00000040: 4681 ccbc ae05 093d f720 803e be1f d83c
00000050: 215e a2be 9de9 b83d 9cd1 da3d a6ab 46be
00000060: 69da e63d bd79 c53c 88e8 90bc 0000 813c
00000070: cdbd 0ebb 3a50 763d b76b 09be f450 dfbc
00000080: 5dd2 50bd 03ad b7bd ab19 293e b174 a6bd
00000090: a348 8dbb 3919 893c edf2 653e c240 53bd
000000a0: e065 37bc 9a19 643c 80d2 7cbc a6a6 63bd
000000b0: 8c5a ab3c 917f 6a3c 205b cabd dd3e 88bc
000000c0: 9c72 243e 6fce 483d f0a2 a1bb ea2a 383d
000000d0: c67a 603d 3589 243d a058 973c 1257 493d
000000e0: 2a4d 69bd 2124 08be 241a d33c 77f1 91bc
000000f0: a41a 44be 4a2f 35be cd25 533d d3f4 b8bd
00000100: 15fa 013e 6f63 243d f3fc eebb a4dc ea3c
00000110: 46b7 6d3d 185c a7bc b366 65bd 40bf ef3c
00000120: bbf4 143d 6ce4 9ebb 543b 7d3d b087 7e3c
00000130: edb1 84be 3a82 4fbd ba50 3d3d 41fb 153d
00000140: b4f3 733c 7e66 5e3d 2a27 773d 73d2 0dbe
00000150: 1248 7a3c 19ff 52be 6e84 5bbe c081 303e
00000160: ed83 90bd 3e92 d03d b819 7b3d f054 9b3b
00000170: e0ac 003e c939 503d b04a 74bc f223 fdbd
00000180: d3a4 cc3d 65a7 543d fe04 c63c d4fb ab3d
00000190: 74df bb3c 347c 30bd 663d 543d f051 4c3c
000001a0: 8963 473d aeca 5e3e 0ea4 f73b 35d1 0cbe
000001b0: 5f16 c73b d8ff 3a3d aaab 33bd 50f7 52be
000001c0: d96d 293d 0794 463d 72b1 72bd 4b65 04be
000001d0: 89b3 1f3e 6a9a 5d3e 1499 11bb 82fc 873c
000001e0: e0eb 503b 1010 24bd 5498 01be 7944 58bd
000001f0: 3294 08bd 5605 b33c 385a 693c e1f0 2d3d
00000200: 5463 1cbd bda3 f4bd d8f0 17bd e366 debc
00000210: 0c9f 5a3e 6b4d 74bc fac2 e23c f57c f03c
00000220: 503d 66be e85f 923a 28df 3ebe 9e97 763d
00000230: ceb2 5c3d 039e 5c3e 80db 173a a5c6 0ebe
00000240: 78c4 8f3c 86f1 4dbe 4aeb a0bc 0b20 07bc
00000250: e730 a23b c880 c03c 2d6c 58bd 48e9 0cbd
00000260: 751d f03a 00a3 483c 07b6 713e 6010 a1bb
00000270: 6a9a 3b3d 2a98 7bbd c9f3 e038 6870 74be
00000280: c408 9cbc e587 59bd bd66 c8bb c538 393e
00000290: 5994 23bd ef9b 2ebc 1057 3f3d 4cc1 55bd
000002a0: 4e5f a03c 2e89 653e e38b 5bbc 7016 99ba
000002b0: 4b3c 1c3d 2277 a0bc 7b7a 8c3d 13ef 963d
000002c0: bdff 71be 5200 dbbd 17ef 3ebc 9c83 aebc
000002d0: 587e 5f3c 602e 113d 1b9f 3fbd e8b4 5abd
000002e0: 34ee 03bb e96a f439 58ca 423c 374d a63b
000002f0: 5430 993c 017d 9e3d 3b29 df3c 8bca d53d
00000300: f8ae 3a3c 8315 e73c 7e54 823c b02f f73c
00000310: e5d0 7bbc b59f e23c 28a1 b63c 7c72 1bbe
00000320: 2824 213d 7f13 2e3e 80c7 813b c1cc 973d
00000330: 50bd 4fbc 68cd 79bc fa16 263d e2f1 62bd
00000340: faeb 79bd 867a 0abd 62f5 e83c e0d0 80bd
00000350: 04f9 94bc ae7b 72bd 987a 8b3c c081 cd3a
00000360: 06b2 7ebd d476 3b3d 7133 863d fd7b 5e3d
00000370: 8fbe 583d 7de5 23be a398 523e c018 6bbd
00000380: 8098 553d 6237 e33d ec73 d33c e42f 94bc
00000390: a1ee 2b3d 7428 33bd d57f 57bd 1f48 e7bb
000003a0: a1ac a6bd bb8f e93d 83d7 01be b047 7fbd
000003b0: 068e bfbc 526f 22bd 4867 f93d 082d 823c
000003c0: 65da c43d 6a73 4e3c f4b7 3abe 784b 313d
000003d0: d6ce fdba d2c8 363c 1d9d 1a3e 58b0 50bc
000003e0: 7d5e a4bc 9b3f 9fbc b84c 013d 98ee b83c
000003f0: 562b 75bd 8273 02bd fa6e 8abd 36fd e03c

fc2.bias f4 [256]
-0.058348868 -0.059689216 -0.03555624 0.059060134 -0.063469216 0.012305378 0.10180074 0.018830806
-0.03731717 0.12439491 0.01812211 0.0041019944 0.050522637 0.05384569 -0.05087104 -0.050688088
0.030976815 0.035104446 0.027296582 0.005375835 0.004701608 0.050282635 0.03186719 0.1952439
0.017428054 -0.043706253 -0.058790833 0.023216454 -0.03784658 0.052827355 0.05531236 0.09768369
-0.057452038 -0.008545095 0.010660917 -0.021493956 0.014125306 -0.0068587144 0.04140734 -0.023013286
-0.06056696 -0.0058259815 -0.03265433 0.12146519 0.036063947 0.0590481 0.013224946 -0.008095018
-0.020502537 0.0064741974 0.006578765 0.025789525 0.010101115 0.005139269 0.010458736 0.05763882
0.31627107 -0.009253536 0.039621152 0.02593678 0.05182561 0.03168161 0.026590401 0.033775356
-0.0698693 0.06446817 -0.01474271 -0.028924437 -0.028777355 -0.03581697 0.118494906 -0.010659674
-0.0036531177 0.016412344 0.03186508 0.052257992 -0.039529573 0.051411297 0.020929936 0.32747737
0.019727908 0.030853795 0.19101468 0.26342776 0.0018802246 0.063816324 0.15508159 -0.06061108
-0.01972185 -0.009222177 0.16141444 0.020907274 0.02608363 -0.041238986 -0.020392597 0.046896607
-0.005014831 -0.011260656 -0.03773678 0.018954357 0.044718985 -0.054796085 0.053702526 -0.05567705
0.036877695 -0.052635726 0.049755074 -0.057178255 -0.00564012 -0.043115824 -0.053214327 0.05511555
-0.018402876 0.08195965 0.037437774 -0.02572789 -0.05455552 0.026728027 -0.015420057 0.02246084
0.043116633 -0.04831326 -0.039245605 -0.0022609755 0.037332185 0.044751007 -0.0739345 0.05327151
-0.033319794 -0.05218377 -0.06008943 0.013364583 0.3602535 -0.056328222 0.012878306 -0.024654265
0.2593033 -0.039949317 0.043183804 0.0149333235 0.0024192855 0.016932452 -0.060172576 -0.055813197
-0.024156466 -0.010572354 0.043876078 0.039269075 0.033480175 0.033114642 -0.042394865 0.01457876
-0.019771801 0.0036776045 -0.025906773 -0.011658981 0.04006169 0.114459425 0.37214646 0.005302719
-0.03185814 0.037792094 0.05932306 -0.035506308 -0.04455533 -0.005577299 -0.012105798 -0.001609952
0.032738477 -0.009880534 0.02237657 -0.0466384 0.063532524 -0.05855754 -0.02378428 0.23711161
-0.016004197 0.3473529 0.012651113 0.026299948 -0.0048533166 0.0097152665 -0.04536974 0.3298264
0.3147346 0.050435483 -0.03745858 -0.041702412 -0.025899312 0.0030817017 -0.04183978 0.15655138
0.05230914 0.023131384 0.35333833 0.0036281187 0.05388896 0.029449154 0.05240141 0.04441865
0.009869412 0.045038722 -0.047489036 -0.06321357 0.03503896 0.085326195 0.026325755 0.013818363
0.27510515 0.01036356 0.057138167 -0.026188612 -0.04839091 -0.021515807 0.03253179 -0.0003910915
-0.002485104 -0.011076348 -0.04621965 0.048221666 -0.052107107 0.040816203 -0.0050590187 -0.05371704
0.02052197 -0.037940003 0.052165464 0.09036918 -0.022951305 0.22166209 0.035928816 0.027289793
-0.014822759 0.038933408 -0.013891868 0.0355111 0.05208094 -0.012568654 0.032168884 -0.058418714
-0.024418252 -0.06026506 0.047448695 -0.049284212 0.26058975 0.11821655 0.036684766 0.040432043
0.023487898 0.0011195093 -0.06436961 0.31006944 0.026390038 0.031831376 0.0134052355 0.024248606
00000000: 39ff 6ebd ae7c 74bd 6ba3 11bd 0ae9 713d
00000010: 26fc 81bd 7f9c 493c e87c d03d 1043 9a3c
00000020: e4d9 18bd c2c2 fe3d d274 943c 066a 863b
00000030: d3f0 4e3d 4c8d 5c3d 275e 50bd 509e 4fbd
00000040: 17c3 fd3c aec9 0f3d 159d df3c c627 b03b
00000050: f20f 9a3b 2af5 4d3d 2c87 023d 04ee 473e
00000060: 47c5 8e3c 5405 33bd a8ce 70bd 6f30 be3c
00000070: 0405 1bbd 7f61 583d 378f 623d 630e c83d
00000080: d452 6bbd ba00 0cbc 20ab 2e3c 1814 b0bc
00000090: d46d 673c 11bf e0bb be9a 293d 5c86 bcbc
000000a0: 1015 78bd e0e7 bebb 8cc0 05bd bec2 f83d
000000b0: cab7 133d 6cdc 713d 72ad 583c f7a0 04bc
000000c0: f0f4 a7bc 8125 d43b ae92 d73b 8e44 d33c
000000d0: 267f 253c 5067 a83b 1e5b 2b3c af16 6c3d
000000e0: 48ee a13e 259c 17bc ca49 223d 5f79 d43c
000000f0: 1747 543d 93c4 013d 1dd4 d93c 0758 0a3d
00000100: a317 8fbd e307 843d 688b 71bc f1f2 ecbc
00000110: 7dbe ebbc d1b4 12bd 75ad f23d eaa5 2ebc
00000120: 2569 6fbb 2e73 863c f584 023d 7a0c 563d
00000130: c3e9 21bd a794 523d 4275 ab3c 1dab a73e
00000140: 6c9c a13c 19c1 fc3c 5a99 433e 01e0 863e
00000150: de71 f63a 22b2 823d b5cd 1e3e 5343 78bd
00000160: b88f a1bc 9d18 17bc d449 253e bb45 ab3c
00000170: 56ad d53c 36ea 28bd 600e a7bc a816 403d
00000180: 7453 a4bb 9d7e 38bc e291 1abd 2b46 9b3c
00000190: 412b 373d dc71 60bd 2ef7 5b3d 9e0d 64bd
000001a0: 110d 173d 8f98 57bd facb 4b3d bf33 6abd
000001b0: c1d0 b8bb 389a 30bd 44f7 59bd d8c0 613d
000001c0: a1c1 96bc 76da a73d 5a58 193d 4cc3 d2bc
000001d0: 9c75 5fbd bcf4 da3c 68a4 7cbc ccff b73c
000001e0: 119b 303d 20e4 45bd 00c0 20bd e02c 14bb
000001f0: a2e9 183d d54c 373d f96a 97bd 3a33 5a3d
00000200: 567a 08bd a6be 55bd 5620 76bd 20f7 5a3c
00000210: 2673 b83e 6cb8 66bd 88ff 523c bef7 c9bc
00000220: 67c3 843e e5a1 23bd 80e1 303d e6aa 743c
00000230: e08c 1e3b edb5 8a3c 8577 76bd 619c 64bd
00000240: c8e3 c5bc ab37 2dbc 67b7 333d 9cd8 203d
00000250: 8222 093d 38a3 073d 3da6 2dbd c0db 6e3c
00000260: 79f8 a1bc f703 713b 713a d4bc 5005 3fbc
00000270: ba17 243d b469 ea3d fb89 be3e 6ec2 ad3b
00000280: ae7d 02bd e2cb 1a3d bdfc 723d 106f 11bd
00000290: a67f 36bd c6c1 b6bb 6657 46bc 0605 d3ba
000002a0: c818 063d f7e1 21bc 124f b73c e807 3fbd
000002b0: 571d 823d 08da 6fbd 40d7 c2bc 63cd 723e
000002c0: 3c1b 83bc 3dd8 b13e 9d46 4f3c fd72 d73c
000002d0: 9208 9fbb c82c 1f3c 9fd5 39bd 02df a83e
000002e0: e524 a13e 7095 4e3d 2b6e 19bd 26d0 2abd
000002f0: cb2a d4bc 60f6 493b 3060 2bbd 014f 203e
00000300: 1c42 563d 077e bd3c c3e8 b43e bbc5 6d3b
00000310: acba 5c3d 5a3f f13c dca2 563d 55f0 353d
00000320: 50b3 213c 867a 383d dd83 42bd 1e76 81bd
00000330: 0385 0f3d 80bf ae3d 1ca9 d73c 6a66 623c
00000340: 95da 8c3e eccb 293c b609 6a3d 8089 d6bc
00000350: 8c35 46bd eb41 b0bc 0e40 053d 6a0b cdb9
00000360: 20dd 22bb 9279 35bc d150 3dbd 1584 453d
00000370: 436e 55bd e42e 273d 20c6 a5bb 6606 5cbd
00000380: b11d a83c fa66 1bbd 74ab 553d 7a13 b93d
00000390: 6004 bcbc 63fb 623e 182a 133d d88e df3c
000003a0: 28db 72bc a378 1f3d b89a 63bc 1674 113d
000003b0: d352 553d c1ec 4dbc 85c3 033d 7648 6fbd
000003c0: c908 c8bc 7fd8 76bd 9059 423d 3ede 49bd
000003d0: 056c 853e 851b f23d c442 163d 129c 253d
000003e0: b169 c03c 80bc 923a 37d4 83bd 6cc1 9e3e
000003f0: ec2f d83c 9e61 023d a2a1 5b3c 03a5 c63c

fc3.weight f4 [3, 256]
-0.0016320164 0.006859407 -0.0037785894 -0.043023467 -0.031706832 0.027014658 -0.04299789 -0.029202148
-0.029019192 -0.05480698 0.041655008 0.0022805082 -0.021430934 -0.013549872 0.004893453 0.025459606
-0.025200067 -0.027483627 0.030715367 -0.033366203 -0.027724413 -0.044239704 -0.020929232 -0.06581903
-0.0294339 0.0028651133 0.05195438 -0.06432205 0.037068162 -0.018003201 0.020554965 -0.020927599
-0.05261431 -0.018203521 -0.04085675 0.050398335 0.01336287 -0.027411846 -0.052499607 0.013572147
0.029957876 -0.007576955 0.026769929 -0.0449421 3.7252903e-07 -0.053149734 0.06016581 0.12809494
-0.050485857 -0.05991504 0.04824253 -0.06594462 0.0029024829 -0.05862817 0.002045726 0.058800433
-0.08113441 0.096472085 -0.008819097 -0.0013398996 0.018076086 -0.009477473 -0.036599495 -0.03456624
0.007991531 -0.03941163 0.02373144 -0.03479031 -0.01938793 0.015727928 -0.027145281 0.026316866
0.03394242 -0.05523783 0.045624003 -0.014787417 0.063392065 0.010886908 0.026988419 -0.13468379
-0.01655744 0.042616956 -0.09941652 -0.13996273 0.042305432 -0.04818171 -0.1576149 0.037136875
0.019701652 0.02708022 -0.06788236 0.0035630995 0.1517729 -0.0015424415 0.05727355 -0.047227167
-0.03852796 0.038892277 0.019541197 -0.029628128 0.00051744067 0.017739333 0.060998 -0.018417954
0.11075384 -0.059214443 -0.04267774 0.019458253 0.0033844863 0.05600041 0.03587024 0.00025578588
0.06218618 -0.011470929 -0.009302445 -0.03588616 0.045391932 0.053867497 -0.05012998 -0.03008148
-0.07668594 -0.01049517 -0.044586517 -0.057441786 0.054618113 -0.0337146 -0.8938194 -0.0488557
-0.046090666 0.030069113 0.041998964 -0.029603405 -0.12815002 0.07223248 -0.031317122 -0.13964975
-0.15756159 0.018086946 0.047150522 -0.0614385 0.052974522 -0.02147088 -0.046284083 0.012899116
-0.041018806 -0.0016858281 0.0609707 -0.061978534 -0.026180409 0.023430834 0.054703563 -0.038325176
-0.017019702 0.04584714 0.04395365 0.031944208 0.051970884 -0.07035489 -0.17584397 -0.01939535
0.05910291 0.00046993914 -0.025630698 0.05055143 -0.058167562 -0.14740781 0.3920025 -0.018006202
0.2921019 0.02582507 -0.07999359 0.03625475 0.16225196 -0.02115032 0.025913693 -0.13522014
-0.034547903 -0.20777197 -0.010398243 0.042396072 -0.09238278 0.039598137 -0.006769592 -0.1833611
-0.14057413 -0.03470934 0.0043476312 -0.04751212 0.018708834 -0.05412467 0.048606005 -0.08849584
0.034314156 -0.04507716 -0.11896798 -0.008786599 0.038558774 0.18568887 0.4194266 -0.0062028267
0.05247107 0.09229006 -0.011898023 -0.053129703 0.023226785 -0.017593538 0.010138251 0.009922485
-0.08845316 -0.027816977 0.015538268 -0.009116031 0.034778442 -0.04412781 -0.018465227 -0.037872076
0.037134185 0.0015849681 -0.038015865 -0.0706335 -0.037161246 0.05234769 -0.04543209 -0.012474691
0.15729511 -0.050568096 0.056975316 -0.032377478 -0.01018253 -0.107760444 -0.004373312 -0.052938752
0.05601205 -0.14225124 0.052088633 -0.010064525 -0.0076594283 0.022351652 0.04390837 -0.028832085
0.044515412 0.08502638 0.030383885 -0.08308418 -0.13493595 -0.026386866 -0.016308956 -0.024196409
-0.013013187 0.022997819 -0.061260246 -0.22475322 0.046931118 0.013304085 -0.040342305 0.055072434
00000000: 62e9 d5ba e0c4 e03b 36a2 77bb 6039 30bd
00000010: 06df 01bd d84d dd3c 8e1e 30bd 5839 efbc
00000020: a8b9 edbc 497d 60bd 719e 2a3d 9474 153b
00000030: ed8f afbc 4800 5ebc 4259 a03b aa90 d03c
00000040: 5f70 cebc 5825 e1bc cb9e fb3c 00ab 08bd
00000050: 4f1e e3bc b134 35bd c873 abbc 21cc 86bd
00000060: 5d1f f1bc a0c4 3b3b 1ece 543d 47bb 83bd
00000070: c9d4 173d 737b 93bc e362 a83c 5b70 abbc
00000080: 1a82 57bd 8d1f 95bc 6859 27bd 7c6e 4e3d
00000090: f0ef 5a3c cf8e e0bc d409 57bd b65d 5e3c
000000a0: 386a f53c 1b48 f8bb 9c4c db3c 3515 38bd
000000b0: 0000 c834 89b3 59bd 6d70 763d 522b 033e
000000c0: 42ca 4ebd 7969 75bd f699 453d f90d 87bd
000000d0: 9537 3e3b 1824 70bd 9611 063b b9d8 703d
000000e0: cc29 a6bd 2893 c53d f97d 10bc 929f afba
000000f0: 4d14 943c 6747 1bbc 5ae9 15bd 5495 0dbd
00000100: e9ee 023c 176e 21bd 7068 c23c 4980 0ebd
00000110: 70d3 9ebc dbd7 803c c85f debc 7896 d73c
00000120: 3507 0b3d 1041 62bd 3ce0 3a3d ec46 72bc
00000130: b3d3 813d 005f 323c d116 dd3c 8cea 09be
00000140: 78a3 87bc 1e8f 2e3d e39a cbbd 6452 0fbe
00000150: 7648 2d3d 2f5a 45bd cd65 21be d61c 183d
00000160: 5c65 a13c 56d7 dd3c e805 8bbd e482 693b
00000170: 5b6a 1b3e c02b caba ac97 6a3d 4671 41bd
00000180: 7fcf 1dbd 824d 1f3d dc14 a03c b0b6 f2bc
00000190: dba4 073a 1452 913c 0ad9 793d 40e1 96bc
000001a0: e9d2 e23d d88a 72bd dbce 2ebd ea66 9f3c
000001b0: 42ce 5d3b b060 653d acec 123d 001b 8639
000001c0: f0b6 7e3d 90f0 3bbc 4869 18bc 5efd 12bd
000001d0: e4ec 393d 2aa4 5c3d 1855 4dbd 706d f6bc
000001e0: 850d 9dbd eff3 2bbc 5aa0 36bd 1448 6bbd
000001f0: 3eb7 5f3d 5218 0abd 59d1 64bf ea1c 48bd
00000200: 91c9 3cbd 8053 f63c 1b07 2c3d d782 f2bc
00000210: c239 03be 9fee 933d 6246 00bd 5800 0fbe
00000220: d357 21be 132b 943c e820 413d f0a6 7bbd
00000230: d0fb 583d b3e3 afbc 6194 3dbd d056 533c
00000240: 5603 28bd 01f7 dcba 6abc 793d 34dd 7dbd
00000250: 4c78 d6bc 05f2 bf3c d810 603d dcfa 1cbd
00000260: e76c 8bbc 36ca 3b3d be08 343d eed7 023d
00000270: 6cdf 543d 3916 90bd 7110 34be ffe2 9ebc
00000280: e515 723d 2a62 f639 78f7 d1bc 040f 4f3d
00000290: 1c41 6ebd 13f2 16be 8db4 c83e be81 93bc
000002a0: 618e 953e 198f d33c aed3 a3bd dc7f 143d
000002b0: 6125 263e 7043 adbc f448 d43c 2677 0abe
000002c0: 1a82 0dbd 2dc2 54be 645d 2abc 81a7 2d3d
000002d0: 2f33 bdbd a831 223d 74d3 ddbb 03c3 3bbe
000002e0: aaf2 0fbe 622b 0ebd 9376 8e3b 129c 42bd
000002f0: 4543 993c d4b1 5dbd 1717 473d 4f3d b5bd
00000300: 008d 0c3d d4a2 38bd 7ca5 f3bd abf5 0fbc
00000310: ceef 1d3d 3925 3e3e 15bf d63e 1541 cbbb
00000320: e8eb 563d 9202 bd3d edef 42bc 889e 59bd
00000330: 1946 be3c 5320 90bc e81a 263c eb91 223c
00000340: ee26 b5bd 6ee0 e3bc 3894 7e3c 685b 15bc
00000350: d773 0e3d 5dbf 34bd 6344 97bc c01f 1bbd
00000360: 041a 183d b4be cf3a 86b6 1bbd 4ca8 90bd
00000370: 6436 18bd 886a 563d 0017 3abd a562 4cbc
00000380: f811 213e 7e20 4fbd f35e 693d 3f9e 04bd
00000390: a0d4 26bc 82b1 dcbd 004e 8fbb 4ed6 58bd
000003a0: e46c 653d 4faa 11be e45a 553d ade5 24bc
000003b0: f1fb fabb d01a b73c 43d9 333d 4431 ecbc
000003c0: cb55 363d 5022 ae3d a0e7 f83c 0a28 aabd
000003d0: a62c 0abe 4529 d8bc 5c9a 85bc 8c37 c6bc
000003e0: 4335 55bc ec65 bc3c 06ec 7abd b525 66be
000003f0: d83a 403d 60f9 593c f93d 25bd a293 613d

fc3.bias f4 [3]
0.012981879 0.073424436 0.03282942
00000000: f2b1 543c 8d5f 963d 2478 063d
