model.bin (torch, 271604 bytes, 6 tensors)

fc1.weight f4 [256, 2]
00000000: 8ce8 603e 2fdf 82be 0f8f 2bbf 2bae 98be
00000010: 4e41 b3be 2ad1 2dc0 d962 4e3f 968c b33f
00000020: 5b13 8a3e d536 afbd bc75 3ebf d3af b8bf
00000030: 10fe 32be 8011 cf3c dd3c 31be 05a5 92be
00000040: 9918 a33d 82f1 dbbf d78f 93bf 066e 1c3f
00000050: da91 3c3f 8134 a1be 60c8 723d 1069 733d
00000060: ad47 3fbf 66f9 b8bf 5e08 21bf 1e8e 07c0
00000070: 7fae f4be 6082 43bf 364e bdbd 4ab3 98bf
00000080: 0dc6 11bf f1c1 c93e fd1c f43e 8ea6 ccbf
00000090: 6d60 2ebf cf3b 3fc0 27d7 9fbe 0fc0 ccbf
000000a0: b0d7 17be b802 02bf 201a 3dbe 44f7 233e
000000b0: 56dc 0fbf 6907 a8bf e962 bfbd c316 1e3f
000000c0: cb38 313f 38cb c13d 0c92 8bbe 818c 1bbd
000000d0: 59c7 05bf 5567 0f3d 0fa5 25bf ea93 abbf
000000e0: 5a5c e33e 8849 ce3d c2f2 e13e e5e8 97be
000000f0: fd45 20be 1a4c afbf 4ae5 d83e a210 60be
00000100: c109 303f 6080 673d 858c 1d3f 77ff 283f
00000110: 0064 5d3e b395 0a3f 205d a4be 0130 93bf
00000120: 233f 71bf f2d2 b2bf 2e82 0ebf 6e1a 67bf
00000130: ecc0 223e 07d0 253f 1096 c6be 8561 583e
00000140: aa66 a8bf 0c64 cc3f dc52 983e 2150 33bf
00000150: 80bf 6fbc 30ba 33bd 3618 cf3e 0a79 2cbf
00000160: 61e6 f5be f081 47bf a3f0 53bf 3136 04c0
00000170: 6577 963d e8f5 dbbf 90ce 0c3f eaad 843f
00000180: 2098 63bd faaa f4be 519a 53bf 9e50 73be
00000190: 46c1 863e c877 ef3d 8b45 8bbc 4a7a b4bf
000001a0: ef2c 91be 3ccd 91bd f9c3 a8be fcd4 e1bf
000001b0: d7ba 5dbf 3d79 84bd b9f9 b2be 0e5d b0be
000001c0: 7c1d fd3e ec31 6cbd 445d 073e 58dd 4abe
000001d0: 291a 0e3f 1080 813e 6cbb 543e 2d71 2840
000001e0: ebd0 4cbf 47de cc3f 4510 c7bd e559 e0bf
000001f0: 79e0 f8be a98b 87bf 6a6c dc3e 9874 ec3d
00000200: 8167 73bf 421d f0bf e08e 2e3d 3f19 083f
00000210: f44e 533f 6dee 07c0 8861 583e 1408 bebf
00000220: 0b6b 6abf 1de9 213f e897 97bf 9d9b 7abb
00000230: 7bf2 b33e 7bfb debf 51aa 84bd abff 8240
00000240: 5c7c 283e 926f ba3e 2d00 bebe 3714 2abf
00000250: 5291 26bf f451 22bf c4a1 04bf a63c 8bbd
00000260: 2fc9 633f 34df f5bd 14a8 723e bfe2 08bf
00000270: d0ae b73d 8723 20bf 3543 143f d0eb 69be
00000280: 5671 7ebf 6f98 8abf 4e5e f63e 9461 89be
00000290: 3e1b 50bf 555a f6bf f069 edbe 00eb 6abf
000002a0: ea7e abbd a599 b0be 528c bcbd 6b37 aebf
000002b0: e075 d7be 6b47 0cbf 48a9 e1bd 538b 33bf
000002c0: 0a25 57be a821 a6bf 8f68 c6be 827a 38bf
000002d0: 182d 94bf 1d4a acbe dc49 653e 4d31 a740
000002e0: a8aa a2be 320b 983e 4071 183d 02c0 e03e
000002f0: c606 4e3d f2ca 8bbf ff56 61bf 9cba aa3f
00000300: 4bd0 aa3e 94d3 fdbe 713b 44bf 86f9 87bf
00000310: dc2c 44bf 1586 56bf f9aa 03bf a9be c9be
00000320: 14d2 2abf ff3b 5cbf 832f 78bf 6d54 b9bf
00000330: 6eb6 e13e 1b80 243f d5ac c23e 8f27 903d
00000340: 3d94 833d 4d91 d0bf 4719 eebe 0f56 0d3f
00000350: 67e0 8cbf 06d7 08c0 de77 a4be f6f1 b1bb
00000360: 8c87 d43c 0327 88be 440d 45bf 6fa1 07c0
00000370: 5d76 8cbe cf16 88be c5d9 60bf 5973 babe
00000380: 5f1f ec3e f55d 1abe 082f a03d a0f6 b1bd
00000390: 16f4 54bf f033 4dbf 8f41 88bf 9e21 09c0
000003a0: fc94 59bf 2f14 59be 3809 1e3e cc59 9b40
000003b0: f47f 00bf 50d5 723d 144c 1c3f ded1 74bf
000003c0: 9783 20bf 1318 1640 72af 5b3e 00d7 74bf
000003d0: 17ce e8be 31a6 8e3e 1b54 3fbf 9caf a93d
000003e0: 466f c8be 3a55 e6be da97 ce3e 8e9a ae3e
000003f0: 982d 87be 0603 f5be 4d00 ebbe d1c8 93bf
0.2196371 -0.255609 -0.67015165 -0.2982038 -0.3501076 -2.7158914 0.8061958 1.4027278
0.26967892 -0.0855538 -0.743984 -1.4428657 -0.1747973 0.0252769 -0.17308374 -0.28641525
0.07963676 -1.7183077 -1.1528271 0.6110538 0.7366005 -0.3148537 0.059273124 0.059426367
-0.74718744 -1.445111 -0.6290339 -2.1180491 -0.4778938 -0.7637081 -0.09243433 -1.1929715
-0.56942827 0.39405778 0.47678366 -1.5988328 -0.68115884 -2.9880254 -0.31218836 -1.5996112
-0.14828372 -0.507854 -0.18466997 0.16012293 -0.5619558 -1.3127261 -0.093450375 0.6175348
0.69227284 0.09462589 -0.27259862 -0.03797579 -0.52257305 0.035010654 -0.64704984 -1.3404515
0.44406396 0.10072619 0.44130522 -0.29669872 -0.15651698 -1.3695099 0.42362434 -0.21881345
0.68764883 0.056518912 0.6154254 0.6601481 0.21620178 0.5413467 -0.321023 -1.1499025
-0.94236964 -1.3970625 -0.5566739 -0.90274704 0.15893906 0.6477055 -0.38786364 0.21130951
-1.315633 1.5968032 0.29750717 -0.7004414 -0.0146330595 -0.043878734 0.4044816 -0.6737219
-0.48027328 -0.77932644 -0.8278906 -2.0658076 0.073469914 -1.718442 0.5500269 1.0365574
-0.055565 -0.47786695 -0.82657343 -0.23761222 0.2631933 0.11692768 -0.017000934 -1.409982
-0.28354594 -0.071192235 -0.32962015 -1.7643123 -0.8661322 -0.06468437 -0.34956148 -0.34445995
0.49436557 -0.057664797 0.13219172 -0.19810998 0.5550867 0.25293016 0.20774621 2.6319077
-0.80006284 1.6005334 -0.097199 -1.7527434 -0.4860876 -1.0589496 0.43051463 0.11545676
-0.9507981 -1.8758929 0.042616725 0.5316352 0.8254235 -2.1239274 0.21130955 -1.4846215
-0.91569585 0.6324633 -1.1843233 -0.0038239725 0.35145935 -1.7420496 -0.06477798 4.0937095
0.1645369 0.36413246 -0.3710951 -0.66437095 -0.6506549 -0.634063 -0.51809335 -0.06798677
0.88978857 -0.12005463 0.23696929 -0.5347099 0.0896889 -0.6255421 0.5791505 -0.22843862
-0.99391687 -1.0827769 0.48118824 -0.2683226 -0.8129157 -1.9246317 -0.46369886 -0.9176483
-0.08373816 -0.3449222 -0.092064515 -1.3610662 -0.4208212 -0.54796475 -0.11018616 -0.70134467
-0.21010223 -1.2979021 -0.38751647 -0.7206193 -1.1576262 -0.33650294 0.22391456 5.224768
-0.31770825 0.2969604 0.03721738 0.4389649 0.05029943 -1.0921309 -0.8802337 1.3338199
0.3336204 -0.49575484 -0.766532 -1.0623024 -0.7663095 -0.8379834 -0.5143276 -0.39403275
-0.66726804 -0.86029047 -0.969475 -1.447889 0.44084495 0.64257973 0.38022485 0.07038795
0.064247586 -1.6294342 -0.4650366 0.5520944 -1.1005982 -2.138124 -0.321227 -0.0054304553
0.02594354 -0.26592264 -0.76973367 -2.1192281 -0.27434054 -0.26579902 -0.8783229 -0.36416128
0.46117684 -0.15074904 0.078214705 -0.08689618 -0.83184946 -0.80157375 -1.0645007 -2.1426768
-0.8499296 -0.21199106 0.15433204 4.8547115 -0.5019524 0.059285462 0.61053586 -0.9563273
-0.6270079 2.3452194 0.21453646 -0.95640564 -0.45469734 0.2786117 -0.7473771 0.08285448
-0.39147395 -0.44986898 0.4035023 0.3410229 -0.26401973 -0.4785387 -0.45898667 -1.1545659

fc1.bias f4 [256]
00000000: eced 06bf 062e 963f e5ef eebb f13d 263c
00000010: 75b0 823f 1049 f5be d4ab a0be 1560 773f
00000020: 6855 053e c08f 073e 6b81 7ebd d366 23bf
00000030: 2032 913f 1de7 9c3e 251d 963f c743 6f3f
00000040: e4a7 2fbf 8e3f 7d3f f988 97bc 1fb2 ef3e
00000050: c22e 1fbf 7a3b 0ebf b175 d93e 6726 213f
00000060: 01b6 0ebf 9ede 933f ddf7 2c3f e46c 343f
00000070: d7d1 a1be 0edd 28bf 0035 5d3f 70a8 06bf
00000080: fbb1 23bf 1cc5 0cbf 5459 7fbe 2b41 043f
00000090: 41cc 5a3f 5869 373f 1c71 37be 8baf e23e
000000a0: ecb5 90be 8eb7 0b3f a82e 2abe 3bcb 16bf
000000b0: 366f 063f f387 d73e 9961 8b3f 34f4 c53e
000000c0: d5a9 21bf 7a06 763f 2fdb 32bf f2c4 fd3e
000000d0: 482d 063f 295f 193e f7e6 f63e 3acf 273f
000000e0: 9ff3 0a3f baf0 d4be 37ac cabe 2283 943e
000000f0: 2c44 523e efe8 5e3f 616b 363f ed37 16bf
00000100: b08e f53e 5889 f2be 3381 52be 8242 6c3e
00000110: dd24 3ebd 3db1 f6bc 0ce3 bf3e 0a12 b8bd
00000120: e61e cbbe 05fd 8a3f 80e6 203f db6d c73e
00000130: 1b55 33be fb97 5f3f 2a5d 0cbf 1822 32bf
00000140: 1ef7 29bd d32f e4be 6183 d33e 3a3f 833f
00000150: 998e 683f 3d6c 603f af47 513f afcb 933f
00000160: 08dc 7d3f b2da 823f eb54 06bf 69ad 1fbd
00000170: 8f35 12bf 241e ddbe a166 433f 2911 533e
00000180: bf29 823f ef49 c73e e96c 933f 0676 c43e
00000190: 809a 403f 862e 323f 9d0c 19bf 4983 4dbd
000001a0: 8c0e 2a3f 015e 19bf a342 adbd a80d 843f
000001b0: 71e4 6a3f 6f36 c63e 1ff9 403f c58b 76be
000001c0: c02c 6bbe 7b1e 98be b03f 943f b355 49be
000001d0: 058e 863f 4383 15bd 53b8 2bbf 4602 25be
000001e0: 795d 453e 1219 8b3f 4f7b 643f 5303 153e
000001f0: 0806 073f c57d 0dbf 0cad 20bf 36c8 f43e
00000200: 2ed8 c3be 22dd 2abe c045 6ebd 5fa6 52be
00000210: 9c84 483f 796a 423d 7ed8 333e 6cf8 2abf
00000220: 4051 94bd 34e1 b2bd 321d 853f 0c6e 853f
00000230: 1cd6 f43e d97e 8d3d d74e 243f 5c0d 683f
00000240: 7ec7 2a3d ee66 15bf df8d 13be d603 133f
00000250: 1675 12bf fffb 4e3f ca2c 3f3f dfcd b6be
00000260: 6cba d5be b865 023f 97d9 8b3f 7244 5a3f
00000270: 146f 813f dbb8 5fbd f356 223f 3816 29be
00000280: 49f5 983f a648 0c3f d714 183f c6ef 743f
00000290: dc6c 1abe 1550 4a3f 63a8 99be 6415 653f
000002a0: ade1 163d 97d6 ba3e 4963 0d3f b21b 113f
000002b0: 969c 6c3f 8fc8 6d3f ced6 91be faf7 97be
000002c0: 6bd1 c63e 8513 4e3f f51e ce3d 71ff 7dbd
000002d0: 226c 113f 8446 1ebe e893 2fbf 2359 d63d
000002e0: 85d7 f5be 33c5 34be c299 fc3e 58d9 29bf
000002f0: 45d4 0a3f 5372 623f 820a 5b3f 5014 adbd
00000300: ca6f ce3d ced8 423f b29e 9bbe 61b5 263f
00000310: 97e8 abbe d2bf c0be dde9 0bbf e61e 1cbc
00000320: 3f6d 1ebf 4f9c 28be 6f1a fabe d086 203f
00000330: 256a 753f 4cf2 28bf 79b5 d93c 0036 1d3f
00000340: 46fe 6a3f 5523 453f c2a8 e7be 2a76 31bf
00000350: a850 813f 7586 5e3f c6b3 833f d98d 513f
00000360: 47ee 48bd 9026 463f 3a77 853e fc42 793f
00000370: 9d42 663f 0033 00bf e14a bbbe b1bd 4cbe
00000380: 5a27 113f faf4 753f 9d32 ae3d 73c9 323f
00000390: b2e0 28bf 2b64 1e3c 8ff3 1ebf e0b6 663f
000003a0: 7779 8b3f be22 883f a3af 913f 22a4 433f
000003b0: 3472 963f b3e3 bbbe 4da9 433f 0e80 523c
000003c0: 245b 5cbd 001b 9a3f 8886 2bbf 3c02 09bf
000003d0: ecc6 8e3f 9a4a 2c3f 856c 7dbe befd a9bd
000003e0: ce7f 943f 0371 2dbf 6e96 913f c900 00bf
000003f0: e395 c1be 8da6 3b3f d813 48bd 91f2 2b3d
-0.5270679 1.1732795 -0.0072917813 0.010146604 1.02101 -0.47907305 -0.31381094 0.96630985
0.13020861 0.1323843 -0.06213514 -0.6382877 1.1343422 0.30645075 1.1727644 0.93462795
-0.68615556 0.989251 -0.01849793 0.46815583 -0.6218072 -0.55559504 0.42472604 0.6294922
-0.55746466 1.1552312 0.6756571 0.70478654 -0.31605408 -0.659623 0.86408997 -0.52600765
-0.6394345 -0.54988265 -0.2493642 0.5166194 0.85467917 0.71645117 -0.17914242 0.44274554
-0.28263795 0.5457696 -0.1661936 -0.58903855 0.52513444 0.4209591 1.088916 0.38662875
-0.6314977 0.9610363 -0.698657 0.4956432 0.52412844 0.14977707 0.48223087 0.6555058
0.54277986 -0.4158991 -0.39584514 0.29006296 0.20533818 0.8707418 0.712576 -0.58679086
0.47960424 -0.4737041 -0.20557098 0.23072246 -0.046421874 -0.03011381 0.3747791 -0.08987816
-0.3967201 1.0858465 0.62851715 0.38951 -0.17512934 0.8734128 -0.5482966 -0.6958327
-0.041495435 -0.44567737 0.41311172 1.025367 0.90842587 0.8766516 0.81750005 1.1546534
0.99163866 1.022299 -0.52473325 -0.038983736 -0.57112974 -0.43187058 0.76328474 0.20612015
1.016899 0.38923594 1.1517612 0.38371295 0.7523575 0.6960224 -0.5978487 -0.05017403
0.66428447 -0.59909064 -0.084599756 1.0316668 0.91754824 0.38713405 0.7538013 -0.24076755
-0.2296629 -0.29710755 1.1581936 -0.19661598 1.0512091 -0.036502134 -0.6707813 -0.16114148
0.19273938 1.0867026 0.89250654 0.1455205 0.5274358 -0.55270034 -0.6276405 0.47809
-0.3825087 -0.16685918 -0.058171988 -0.20571278 0.78327346 0.04746482 0.17563054 -0.6678531
-0.0724206 -0.0873436 1.0399535 1.0424209 0.47819602 0.0690896 0.641828 0.90645385
0.041694157 -0.58360183 -0.14409588 0.5742773 -0.5720991 0.80853266 0.7467772 -0.35703942
-0.4174379 0.5093646 1.0925778 0.8526069 1.0112023 -0.05461965 0.63413924 -0.16512382
1.1949855 0.5479835 0.594068 0.95678365 -0.15080589 0.79028445 -0.3001128 0.89485765
0.036836315 0.36491844 0.5522962 0.56682885 0.9242643 0.92884153 -0.28484195 -0.2968138
0.38831648 0.80498534 0.10064498 -0.062011186 0.5680562 -0.15456587 -0.6858506 0.1046622
-0.4801599 -0.1765335 0.49336058 -0.66347265 0.5423015 0.88455695 0.8556291 -0.0845114
0.10079916 0.7611207 -0.30394512 0.6512051 -0.3357589 -0.37646347 -0.5465372 -0.009528851
-0.61885446 -0.16465877 -0.48848292 0.6270571 0.9586509 -0.65994716 0.02657579 0.6141052
0.9179424 0.7700704 -0.4524594 -0.6932093 1.0102739 0.86923915 1.0289237 0.8185707
-0.049055364 0.7740259 0.26067525 0.97367835 0.89945394 -0.5007782 -0.36580566 -0.19994237
0.5670067 0.9607693 0.085057475 0.6983864 -0.6596786 0.009667437 -0.6209039 0.90122795
1.0896443 1.0635602 1.1381725 0.7642232 1.1753602 -0.36697158 0.7643021 0.012847913
-0.053797856 1.203949 -0.67002153 -0.53519034 1.1154456 0.6730133 -0.24748428 -0.083003506
1.1601503 -0.6775057 1.1374032 -0.500012 -0.37809667 0.7330101 -0.04884705 0.041979376

fc2.weight f4 [256, 256]
00000000: 80ff 1b3c 76cd 233d 48e3 b3bc 9a26 0cbd
00000010: 7040 493c d032 6cbc 9e5c 053d 76ee 6d3d
00000020: 6a43 153d a0b4 f53b 10b3 a3bc e487 87bc
00000030: b68f 0b3d 407d af3c f4f1 f53c 3878 183c
00000040: 3009 dd3c ca55 25bd be69 763d 7a14 64bd
00000050: a899 30bd 5e25 113d f09f 73bd 46f8 793d
00000060: 7235 303d e02a a23b e4b8 7fbd 08cf d33c
00000070: ca6e 793d 2019 f53c 5206 76bd 003c 253d
00000080: 94cf c5bc 3cc1 5b3d a08b 80bc bc34 933c
00000090: 7ee3 233d bc3e 3abd 8ee5 53bd e86b 2f3d
000000a0: 44f8 1f3d 0070 6dba 20e5 b43c a08d cabc
000000b0: 78c9 f23c c4ed 46bd e065 263b 7065 cf3c
000000c0: 3eb5 5ebd acdc 91bc a032 61bb a038 57bc
000000d0: a060 ddbc 4cf4 d8bc 00f5 0dbc 00c3 9bba
000000e0: fe78 6bbd 48a8 ec3c 30fc 983b 467b 2c3d
000000f0: e8c8 5dbd 3cbd 3cbd 4448 77bd 5470 87bc
00000100: 805f 593a 26c6 143d 2085 07bc f8fa 023d
00000110: 7614 2dbd 2adc 673d 88f5 f03c 00ae 96bb
00000120: 8c47 c53c 84e7 15bd 9060 e93b e083 393d
00000130: 30ad d7bb 86aa 353d 305f 07bd 5097 ae3b
00000140: d037 a5bc 681b 86bc cc02 1e3d 7844 6fbc
00000150: 84be fc3c 08ba 59bd 8ce0 b93c 7413 263d
00000160: aae1 5b3d e08e bb3c 687e b63c 2011 e7bb
00000170: 4288 323d 5277 123d d848 a9bc d80f d3bc
00000180: a0f4 dbbb 60fb 2fbb 7cd9 d2bc 226f 403d
00000190: 506c d43b 6a55 10bd 14b6 233d c858 433c
000001a0: 32fd 4abd 8085 beba e877 77bc c082 2abc
000001b0: c465 08bd 501e 873c b03b 25bc f431 403d
000001c0: b09f 843c c21c 703d f47e aabc 0491 d23c
000001d0: 10c5 30bc c0fc d23b 70c0 ae3b cc81 9ebc
000001e0: b073 fe3c 3c62 a8bc 0067 b33a 2652 673d
000001f0: 88ea cebc e007 45bb 58d3 0e3d d44c 1cbd
00000200: 0ee7 06bd 6405 f63c a8fb 2c3c 4063 d3ba
00000210: 90b7 7dbd f4b6 b13c 9a86 46bd 6ca3 76bd
00000220: 88a2 123c 08aa 503c 9066 613c 5c6a 39bd
00000230: c827 8a3c 70c5 e53b ce69 21bd 8055 623b
00000240: 1c4e e83c 68cb 5f3c 1032 b23c f0bc 1d3c
00000250: 38b1 51bd b467 de3c e808 8e3c 5486 2ebd
00000260: 60a2 183b 0028 b1bb 10e5 95bb 78b5 68bc
00000270: 544f 873c 80b6 6d3a d29d 0ebd c203 7e3d
00000280: 8c47 e3bc c09c 36bd be67 0c3d 20f7 4ebb
00000290: 6020 eabb a032 23bb 4036 f53b 7cc6 6fbd
000002a0: 121a 0abd 128b 2a3d 3e6d 0abd 3864 0abc
000002b0: 202a 3e3d 0455 86bc 8cae 403d 8cd3 08bd
000002c0: c04a 713c b88a 4d3c f8b3 d23c 6046 29bd
000002d0: a085 b5bb 5c7c a23c 4802 0a3d 04ce dfbc
000002e0: 704b 04bc 4eae 32bd 0000 1b39 9069 783c
000002f0: 9836 073c 4cf7 2abd 9217 1e3d 0c95 c0bc
00000300: 3c9d cd3c d2d3 10bd 4aa8 293d c6e0 543d
00000310: 4ad0 47bd 6c70 b5bc 4023 6b3c e07d e43c
00000320: 28ae 5cbd ee4e 683d 6838 45bd 48a0 17bc
00000330: 2849 043c a696 733d f8a8 9bbc b0f0 3cbc
00000340: 828b 343d 78d7 243c 942d f53c 3c6f b5bc
00000350: f4cf ffbc 30ee c0bc 28ab 283c 684e 1d3c
00000360: 387b 95bc 28c1 2a3c 5a63 24bd 201f b7bc
00000370: d625 0f3d 2ad8 39bd 9c5c 09bd c0b4 993c
00000380: 5097 1ebc 602e 143c 681d 49bc 50c5 87bb
00000390: 30a8 773d 20ee 41bd 1ebf 163d 78c7 dfbc
000003a0: 30a1 2e3c 800a 3b3c 081c c43c c4b0 903c
000003b0: ae24 193d d841 73bd a876 e53c 98d6 7a3c
000003c0: 62fb 543d 88c6 e23c 68fb 0fbd 4cca 71bd
000003d0: d628 11bd e8fc 083c 72ce 1bbd 9413 c63c
000003e0: 2077 b4bb 38e6 e43c 68ef 5abc d0a4 0f3d
000003f0: 6021 2ebc f664 763d d045 573d 8ae8 01bd
0.009521365 0.039990865 -0.021958962 -0.0342165 0.0122834295 -0.0144164115 0.03255903 0.058088742
0.036441244 0.007498339 -0.019982845 -0.01654429 0.0340726 0.021422029 0.030022599 0.009306006
0.02698192 -0.040365018 0.060159437 -0.05568359 -0.043115288 0.035436027 -0.0594787 0.061027788
0.04301972 0.0049489588 -0.062432185 0.025855556 0.060896672 0.029919207 -0.06006462 0.040340424
-0.024146833 0.05365108 -0.015691578 0.017969482 0.040011875 -0.045469984 -0.051732592 0.042827517
0.039055124 -0.0009057522 0.022081912 -0.024725735 0.029637083 -0.048566595 0.0025390312 0.025316924
-0.054372065 -0.01780542 -0.003436245 -0.013136059 -0.027023613 -0.026483677 -0.00866437 -0.0011883676
-0.057488434 0.028888837 0.004668735 0.04210975 -0.054146677 -0.046078905 -0.060371652 -0.016533054
0.00082921237 0.03632178 -0.008271486 0.031977624 -0.04225584 0.05660645 0.029413953 -0.004598379
0.024081968 -0.036597744 0.007122107 0.04529178 -0.006581925 0.044352077 -0.033049762 0.0053280964
-0.020168215 -0.01637049 0.038576886 -0.014603727 0.030852564 -0.05315593 0.02269008 0.040545896
0.053682007 0.022895277 0.022277072 -0.007051602 0.043586977 0.035758324 -0.020664617 -0.02576439
-0.006712511 -0.0026852712 -0.02573847 0.046980985 0.0064826384 -0.035237707 0.039968565 0.011923023
-0.049557872 -0.0014535636 -0.0151042715 -0.01040715 -0.033300176 0.016493946 -0.010085031 0.04692264
0.016189426 0.058621176 -0.02081249 0.025703914 -0.010789171 0.0064388216 0.005332999 -0.019349001
0.031061023 -0.020554654 0.0013687313 0.056474827 -0.025258318 -0.0030064508 0.03486952 -0.038159207
-0.032935195 0.030031867 0.010558046 -0.0016127601 -0.061942637 0.021693684 -0.04846821 -0.060214445
0.008949883 0.012735851 0.013757363 -0.045267448 0.016864672 0.007012062 -0.039407544 0.0034535825
0.028357558 0.013659336 0.021752387 0.009627566 -0.0511944 0.027149059 0.017338231 -0.042608574
0.0023290142 -0.0054063797 -0.0045744255 -0.014203422 0.016517319 0.0009068027 -0.034818478 0.062015302
-0.027744077 -0.044583082 0.034278624 -0.0031580403 -0.0071449727 -0.0024902 0.0074832737 -0.0585389
-0.03371627 0.041636534 -0.033795588 -0.008446746 0.046426892 -0.01639796 0.04704146 -0.03340487
0.014727294 0.01254528 0.025720581 -0.04132688 -0.005539611 0.01983469 0.03369358 -0.027319916
-0.008074626 -0.04362326 0.00014781952 0.015161887 0.008252762 -0.041739747 0.038596697 -0.023508571
0.02509939 -0.035358258 0.04142026 0.051972173 -0.048782624 -0.022148333 0.014351666 0.027892053
-0.053877026 0.0567159 -0.048149496 -0.009254523 0.008074082 0.05946984 -0.019001469 -0.011531994
0.044078358 0.010061137 0.02992896 -0.022147767 -0.03122709 -0.023551077 0.010294713 0.009601213
-0.018247232 0.010422029 -0.04013381 -0.022353709 0.034948193 -0.045372166 -0.033535585 0.018762946
-0.00967963 0.00904426 -0.012275077 -0.0041433945 0.06046313 -0.047346234 0.036803357 -0.027316794
0.010658547 0.011416078 0.023939148 0.017662413 0.037388496 -0.059388965 0.028010681 0.015309952
0.05199755 0.027682558 -0.03515187 -0.059030816 -0.035439335 0.008361079 -0.03803868 0.024179257
-0.005507365 0.027941808 -0.013362743 0.035069287 -0.010628074 0.060154878 0.052556813 -0.031715907

fc2.bias f4 [256]
00000000: b6d6 74bd b8e0 be3e 845f e8bc 8881 2a3c
00000010: 7036 323d 2b2e 063d 34d2 5a3d ac6b a3bc
00000020: 878e d53d 83e2 233d fd88 1b3d 910c fcbb
00000030: f9d4 873e 2607 3a3d 1ff3 20bd b09b 3f3d
00000040: 785d 673d 913a 63bd 66ae 953c fbe8 60bd
00000050: a591 ed3c da2b 273b f80b 03bd 6b17 1e3d
00000060: b075 03bd 98ab e03c 8e86 623d b7df 323d
00000070: c1ea 63bb 329a c63a b07a c43b 50a3 3ebc
00000080: f0ce c1bb 14c3 23bd 8b07 bc3b 5065 aabd
00000090: b40d 2dbd d106 b63c 7cfd a7bc 40d3 5d3d
000000a0: 86f5 84bd 7c4d 24bd de96 31bc 0003 69bc
000000b0: f66b 0fbd 0807 90bc 18fd 02bd 46c9 00bd
000000c0: 24ed 65bc 8b7b 7f3c 8f7f 5c3d a040 0a3c
000000d0: b65a a13e 2cc3 8bbc 229b 70bd ef03 ce3d
000000e0: b86c 693e a05d 313b f26c 8f3d 5321 0bbd
000000f0: c8bd 38bd 146c 7c3d 3b93 853b df34 21bd
00000100: a876 bfbc d144 203d 9402 473d cad5 65bd
00000110: 3886 a73c d95a b63a 50cb 7b3d 0f20 a13b
00000120: 645a 2c3d 340b 223d 8cd2 c73c 0001 0abb
00000130: 2bc0 61bd f8f7 433c 18d3 323d 82a4 86bd
00000140: 91f9 383d 6245 5d3d 838a d1bc cf0e 993d
00000150: c0ca 76bb e071 1bbd c45e 80bc 8496 68bd
00000160: b71b 403e 6cf5 94bc 20d9 5c3d 7f5c 6fbc
00000170: 3ba1 303d bc91 0c3d 96ce 693e 0e78 43bd
00000180: 898d 4f3c 3a01 2c3e a4e4 01bd 82ac 503d
00000190: 68f2 b03c 85c3 72bd 05b1 adba 0e84 2a3c
000001a0: b406 33bd 684e 8cbd 9797 0b3e bad4 83bd
000001b0: 6562 1abd a2c4 6abd a8dc 6e3d 3c0d 89bd
000001c0: 8595 823c 16b0 ff3d 31ae 65bd eb6f f13d
000001d0: 6227 c5bc e70e 403d 0e3a dabc d255 7fbd
000001e0: 7506 093d ecc8 24bd 6c6c 403d d4c4 bd3d
000001f0: 4af0 533b 1343 a63b 1ea5 b6bb b890 7abd
00000200: 069d 1d3e 5876 52bd eecb 52bd 58ab b53e
00000210: 50b0 5ebd a3ef 113d 12d3 66bd d0c3 e73b
00000220: 2f9d 12bb aafe f33d fea4 483b df44 4dbd
00000230: d30b 8738 1693 2b3d ec50 af3c b765 4e3d
00000240: 8a54 bfbc aaea 1c3c 34ac 533d a28a 31bd
00000250: c878 23bd 4199 17bd 8068 683c 287b 43bd
00000260: ed7e ff3c 2eb8 4dbd 26b3 3ebd 185f 663c
00000270: b316 b6bc 6d84 283c 40aa 3dbd 13fb 093d
00000280: 5674 663d 6c75 da3e 04d7 bcbc e382 633d
00000290: ba12 55bd 8c38 5fbd c491 9b3c 3043 56bc
000002a0: cb9d 0bbd 83f8 423d f4a9 433d 3c6a fa3c
000002b0: 739d 1dbd 5e01 98bc 8016 683a cbb5 293d
000002c0: 936f 103e 6001 323d 8932 10bd f878 96bc
000002d0: 93df 48bd 1db1 e2bd 10c5 913b 0fe4 6cbb
000002e0: 9e98 703d d9a1 3e3d 1eca bc3b d39f 3f3d
000002f0: fa6f f2bc 4ffc f63d ce57 1f3d 3c5d 983c
00000300: f069 23bd 4ad8 0c3d b07e 44bc d094 7dbc
00000310: 9832 a6ba ce9a 57bd 7fc5 40bd 05bf 57bd
00000320: acde 4e3d a019 8abb f0b8 a7bc 2253 043d
00000330: 2977 403e 32ce 5ebd d345 58bd c033 f3bc
00000340: e36d 7ebd ed5f 26bd 9b83 013d b080 6dbd
00000350: 9543 6a3c 33b5 183e 4809 143d 5847 673d
00000360: 9cd7 9dbc 4117 403e 0600 953c 88bc 543d
00000370: 9fc8 2dbd c0e5 be3a 64a6 66bd 73c0 aa3c
00000380: 51fa 4fbd b036 79bd 90b0 0c3d a89f 053c
00000390: eed2 8dbd 0fdd 163d f8d6 8d3c 7070 ddbb
000003a0: ffa7 0abd 00ce b539 c922 593d a5ff fd3c
000003b0: 6b52 4d3d 5292 143d 7c02 37bd 262e f63d
000003c0: 3c65 aa3c 86be 173d f179 cd3c 7e8a b63c
000003d0: 4630 553d 4082 23bc 38b0 c53d 2f00 593d
000003e0: 1dda 14bc 6eba 61bd 822b cd3d 929d a53b
000003f0: a8fe 833c 7024 5cbd feae 893c 5f7e ffbc
-0.059775077 0.37280822 -0.028365858 0.010406859 0.043508947 0.032758873 0.05342312 -0.019948803
0.104275756 0.04001094 0.03797244 -0.0076919277 0.26529673 0.045416974 -0.03929436 0.046779335
0.056485623 -0.055475775 0.018271636 -0.054909687 0.029000113 0.0025508315 -0.031993836 0.038596552
-0.032094657 0.027425572 0.055304103 0.043670382 -0.0034777375 0.0015152155 0.005996071 -0.011635616
-0.0059145615 -0.039980963 0.005738204 -0.08320105 -0.042249396 0.022220047 -0.020506613 0.05415654
-0.064921424 -0.040112957 -0.010839192 -0.014221907 -0.03501507 -0.017581478 -0.03197965 -0.03144195
-0.0140335895 0.01559342 0.053832587 0.008438259 0.3151452 -0.017060839 -0.058741696 0.10059344
0.22795379 0.0027063861 0.070032015 -0.033967327 -0.045102865 0.06162651 0.004076389 -0.039357062
-0.02337201 0.03912813 0.048586443 -0.05611209 0.020449743 0.0013912573 0.06147319 0.0049171518
0.04207839 0.039561465 0.024392389 -0.0021057725 -0.055114906 0.011960976 0.043658346 -0.06574346
0.04515988 0.054021247 -0.025578743 0.07473528 -0.003765747 -0.037950397 -0.015670188 -0.056784168
0.18760572 -0.018183433 0.053918004 -0.014609455 0.04312251 0.03431867 0.22832713 -0.047721915
0.012668022 0.16797343 -0.03171219 0.050945766 0.021599963 -0.059268493 -0.0013251608 0.010407461
-0.043707564 -0.06850892 0.13632046 -0.06437059 -0.037691493 -0.05731643 0.058315903 -0.066919774
0.015940437 0.124847576 -0.056074325 0.11788925 -0.02406663 0.046889212 -0.02663901 -0.062337704
0.033453424 -0.040230677 0.0469784 0.092660576 0.0032339268 0.005073914 -0.0055738827 -0.06117317
0.15391931 -0.051382393 -0.051464014 0.35482287 -0.054367363 0.035628926 -0.056353636 0.007072903
-0.002237152 0.11913808 0.003061592 -0.05011451 6.439504e-05 0.04188832 0.021400891 0.05038997
-0.023355741 0.009577433 0.051677898 -0.0433451 -0.039910108 -0.03701139 0.014185071 -0.047724873
0.031188453 -0.050224476 -0.046557568 0.014060758 -0.02222762 0.010285479 -0.04630494 0.03368671
0.05626329 0.4266771 -0.023051746 0.055544745 -0.052019812 -0.054497287 0.018990405 -0.013077542
-0.03408603 0.04760028 0.0477695 0.030568235 -0.038480233 -0.01855534 0.00088534504 0.041433137
0.14105062 0.043458343 -0.035204444 -0.01836823 -0.049041342 -0.11068938 0.0044485405 -0.0036146676
0.058739297 0.04654107 0.005761399 0.04678328 -0.02959441 0.12059843 0.038902096 0.018599145
-0.03989595 0.034385957 -0.011993095 -0.015477374 -0.0012679873 -0.052637868 -0.047063347 -0.052672405
0.050505325 -0.0042144805 -0.020473927 0.032305844 0.18795456 -0.054395862 -0.052800965 -0.029687762
-0.062116515 -0.040618826 0.03161965 -0.057984054 0.014298339 0.14912872 0.036141664 0.056464523
-0.01926785 0.1875887 0.018188488 0.05193761 -0.042427655 0.001456432 -0.056311026 0.02084372
-0.05077583 -0.06084317 0.03434807 0.008155741 -0.06924997 0.03683191 0.01731442 -0.0067577884
-0.03385162 0.00034676492 0.05301169 0.03100569 0.050127428 0.036272354 -0.044680104 0.12020521
0.020800225 0.03704693 0.02508256 0.022282835 0.05204799 -0.0099797845 0.09652752 0.05297869
-0.009085205 -0.055109434 0.10018064 0.0050541842 0.01611264 -0.053745687 0.016807076 -0.031188188

fc3.weight f4 [3, 256]
00000000: a463 d5bc 3824 9ebd 401d dfbc 0825 3cbc
00000010: 5e7b 6bbd 76dc 113f c851 e4bd 4e31 1bbd
00000020: 0302 27bc 1315 9d3c d2cc 3e3d 8865 51be
00000030: 65a2 d4bd 6880 e63c bc63 6b3d 8b1a 8bbb
00000040: 64c4 c83c 4e89 623b 96c3 d9bc 9c6e 19be
00000050: e6aa b5bd aa03 08bd 809e 003b c431 b73c
00000060: d06f 9b3b a0e9 623c 228c 5bbd 0ce9 863c
00000070: 31d6 f2bc 2e67 64bc 000d 833c 00da b83c
00000080: 360c 703d d11e 7ebd 804e 9c3d 6b84 54be
00000090: d05a 4dbc f931 ff3e 8304 3dbb c4d3 49bd
000000a0: 3905 65bd 4fc2 61bd 7bdb 003d 5ec6 39bd
000000b0: 4a22 4f3d 34ea 4f3d 0d22 0bbe 20b3 0dbd
000000c0: 853f 3dbe 0d6a ea3c 0e6f df3c a67b 3dbd
000000d0: 04ea bbbd dd76 663d 601c 353b 8883 27bc
000000e0: f782 b2bd 401b 8c3b 12e6 91bb e0ea 9fbc
000000f0: 5a9b 373d e074 e1bc f596 87bd 8543 81bd
00000100: 1843 0bbd 5089 07be c8f2 cb3c be3c 58bd
00000110: 1f59 1dbb 8992 fdba c001 f7ba 18d7 0d3d
00000120: 5efb 71bd 2e3a 6dbd e064 773b 969d 57bd
00000130: debb 17be 03e1 17bd 2c3c f83c fc19 f4bc
00000140: 1bf7 533c 95cb b8bc 1666 dcbd 8590 d9bd
00000150: 4099 e6ba c7c8 433d 9470 453d 8e54 40bd
00000160: 8357 44bd f346 f1bd 0074 163b 2569 81bd
00000170: f755 aebd 2ee0 613d 6f5c d6bd bc4d 553d
00000180: 127e d1be 37c9 003f 08c8 18bc 5355 05bd
00000190: 7d43 ce3c 914c 56bb eace ad3c def2 68bd
000001a0: c8ec 18bd cb61 d7bd 062d 943e 3040 07bc
000001b0: c7c6 07be 18f0 31bc dee0 d73d 6f67 7ebe
000001c0: c993 a1bd a516 f53e dae4 79bc aba5 93bc
000001d0: 77a9 83bd 5873 18bd 1ca9 1a3e 4801 0bbd
000001e0: e6a8 93be e06c ba3c 15e6 65bd 822b 363d
000001f0: a0a6 79bd 3dc0 7fbd f414 a3be 102b ad3c
00000200: 9ebd e33e 044f 0abd 20b1 4abb 5267 03be
00000210: e05b 76bb 7dd6 833c 609d e43c 6069 88bc
00000220: 991e 46bc 08fd 903c 2b23 febc cf09 25bd
00000230: 9bf6 2ebd 086e 27bd 7012 403d 4cae 123d
00000240: 8e0e ebbc 1898 893e fc0a 003d fb57 a5bd
00000250: a265 013d 1904 91bd 0810 f33d b0f6 90bb
00000260: 2d3c 183d c28c 13bd 1ee7 59bd 5891 3abc
00000270: 7968 6ebd 6432 043d 3268 79bd 9cd3 ce3d
00000280: be3b 18bd 85f0 f2bd 083e 543c b07a 863b
00000290: b0bc 67bd 7629 78bd 49d0 01bd f607 60bd
000002a0: 2378 10be dd26 82be 19ff 2e3e 5861 d3bc
000002b0: d667 8c3c 437b 82bc c03e d2bb b62e c7bd
000002c0: 904c b83e 3a00 803d 5988 153d ee80 31bd
000002d0: 32f0 303d d8a1 4cbe e221 143d 4f6f 25bd
000002e0: d087 72bd 7326 9c3e 1ee3 e53c 045f f7bc
000002f0: 4ba2 74bd 3df6 23bc c834 8ebb b486 bebc
00000300: 593f e1bc c50e 18be 20db eebc 8001 95ba
00000310: fb61 8cbd 24bc 1f3b e52a c43c 24de a53c
00000320: aa78 74bd f062 2cbc 9231 6f3d 643b 74bd
00000330: baee 50be 4047 703b f09a 633c dcae 433d
00000340: 2a6b 5f3d 58a5 6f3d 2287 54bd 52b8 38bd
00000350: 7dd9 bb3b cb02 95bd 5c17 f3bc d159 b2bb
00000360: 006c 3ab9 b68d 8cbd a5d1 7dbe c63b 663d
00000370: 72e3 f8bb f4d7 fcbc 7650 7bbd 071b bfbe
00000380: 31da b6bd 4657 4dbd 9b0f e8bd 0052 193d
00000390: 4cac 19be 7450 153d d4de 56bd 5c31 cf3c
000003a0: 7263 77bc 60f0 f33b c0ad a8bb 142a 12bb
000003b0: 9050 11bd dcf6 28bc 387f 793c 024a 233c
000003c0: a22e 6e3d d5b2 4a3d 2e4c 4cbd 2ac6 33bd
000003d0: f9af 013d 7c8f 143d 7a0e dabd 3158 e9bb
000003e0: 5a24 b2bc 480c 173d adaa 82bd 0987 8cbe
000003f0: 96e4 453d 8c31 40bd 3f07 a0be 2df5 1fbf
-0.026048489 -0.07721752 -0.027235627 -0.011483438 -0.0574907 0.5697702 -0.11148411 -0.037888817
-0.010193351 0.019175088 0.04658205 -0.20448887 -0.10382537 0.0281374 0.05746816 -0.0042451075
0.024507709 0.0034566703 -0.02658252 -0.149836 -0.08870487 -0.03320662 0.0019625723 0.022362597
0.0047435537 0.013849646 -0.053600438 0.016468547 -0.02964315 -0.013940616 0.01599741 0.022564888
0.058605395 -0.062041108 0.0763216 -0.20753638 -0.012533858 0.49842814 -0.00288418 -0.04927422
-0.055913184 -0.055116948 0.031459313 -0.045355193 0.05056981 0.050760463 -0.13587208 -0.034594655
-0.18481262 0.028615022 0.027274635 -0.0462605 -0.09175494 0.0562657 0.002763532 -0.010224231
-0.08716386 0.0042757094 -0.0044524753 -0.019521177 0.04482589 -0.02752155 -0.0662059 -0.063117065
-0.033999532 -0.13235974 0.02489604 -0.052792303 -0.002400942 -0.0019346039 -0.0018845126 0.034628958
-0.059077613 -0.057916813 0.0037749335 -0.05264052 -0.1481776 -0.037079822 0.03030213 -0.029797547
0.0129373325 -0.022558013 -0.10761659 -0.10623268 -0.001759328 0.047798898 0.048203066 -0.046955638
-0.04793502 -0.117811106 0.0022957325 -0.06318883 -0.0851249 0.055145435 -0.10466849 0.052076086
-0.40916497 0.5030703 -0.009325035 -0.032552075 0.025178665 -0.0032699446 0.021216828 -0.05687224
-0.037335187 -0.105166994 0.289406 -0.00825505 -0.13259421 -0.0108604655 0.10540937 -0.24844144
-0.07889516 0.4786884 -0.015252316 -0.018023333 -0.06428807 -0.037219375 0.15103573 -0.03393677
-0.28839797 0.022756994 -0.056127626 0.044475086 -0.06094992 -0.062439192 -0.31851923 0.021138698
0.44480604 -0.03376676 -0.0030928329 -0.12832382 -0.0037591383 0.016093487 0.027907073 -0.01665181
-0.012092256 0.01769878 -0.031022629 -0.040292557 -0.04271565 -0.04087642 0.046892583 0.035810754
-0.028693464 0.2687385 0.031260476 -0.080734216 0.031591065 -0.0708086 0.11868292 -0.0044239387
0.037166763 -0.03602291 -0.053198926 -0.011387192 -0.0582051 0.03227462 -0.060890384 0.10098955
-0.03716635 -0.11862282 0.0129542425 0.004103981 -0.05657643 -0.060586415 -0.031692777 -0.054695092
-0.14108329 -0.25420275 0.170895 -0.025803253 0.017139357 -0.015927916 -0.006416172 -0.09725706
0.35995913 0.06250043 0.036506984 -0.043335848 0.043197818 -0.19983613 0.036165126 -0.040389355
-0.059211552 0.30498084 0.0280624 -0.030196674 -0.059725087 -0.010007438 -0.004339788 -0.02325759
-0.027496027 -0.14849384 -0.029157221 -0.0011368245 -0.06854626 0.0024373615 0.023946235 0.020247526
-0.059685387 -0.010521635 0.058396883 -0.05962695 -0.20403567 0.0036663562 0.01389192 0.04777418
0.05454556 0.058507293 -0.051886685 -0.045097657 0.0057327137 -0.07275923 -0.029674225 -0.005442836
-0.00017778575 -0.06862967 -0.24787004 0.05620935 -0.007595473 -0.030864693 -0.06135603 -0.37325308
-0.089283355 -0.05013206 -0.113311015 0.037431717 -0.15007132 0.03645368 -0.0524586 0.025292091
-0.015099393 0.0074444264 -0.0051476657 -0.0022302913 -0.03547722 -0.010312762 0.015228085 0.009966375
0.05814994 0.049486954 -0.049877338 -0.043890156 0.03166196 0.03626965 -0.106472924 -0.007121109
-0.02174585 0.036876947 -0.0638021 -0.27446774 0.0483137 -0.04692225 -0.31255528 -0.62483484

fc3.bias f4 [3]
00000000: 6ca8 0ebd 472a 653d 463a dc3d
-0.03482859 0.055948522 0.10753302
